HW4/Practical/best_model.pth (torch, 45926 bytes, 5 tensors)

fc1.weight f4 [128, 51]
0	0x3cc6118a	0.024178285
1	0xbdad8402	-0.08472444
2	0xbda70e11	-0.0815698
3	0x3cd5e2f4	0.026109196
4	0xbc9ad6bf	-0.018901227
5	0x3da1e569	0.07905085
6	0x3da24f0c	0.07925233
7	0xbe159a38	-0.14609611
8	0x3e03f7c2	0.12887481
9	0x3e09d2bd	0.13459297
10	0x3e4cc995	0.19998772
11	0xbd0cbe60	-0.034361243
12	0x3ce2c46f	0.027681557
13	0x3e159a0e	0.14609548
14	0x3ddc19b6	0.107470915
15	0xbdc5e4bc	-0.09662768
16	0x3dad12a6	0.084508225
17	0xbe5c3f5c	-0.21508545
18	0x3de4e580	0.11176586
19	0x3d388c58	0.045055717
20	0x3dd14c63	0.10219648
21	0x3d910864	0.070816785
22	0xbd762916	-0.060097776
23	0x3d9bf9ac	0.076159805
24	0x3e22b3a6	0.15888843
25	0x3d2385c2	0.039922483
26	0xbdc9605c	-0.09832832
27	0x3df18485	0.11792854
28	0xbcef6e2e	-0.029227342
29	0x3cbab8e5	0.022793243
30	0x3dc47a5f	0.09593653
31	0x3e12c44b	0.14332692
32	0x3d6d463d	0.057928313
33	0x3e4648b5	0.19363673
34	0x3c8dae20	0.017294943
35	0x3e67e95a	0.2264761
36	0x3e077518	0.13228261
37	0xbca5f4dc	-0.02025836
38	0x3dc3e08c	0.09564313
39	0xbd1e6798	-0.038673013
40	0xbceabec8	-0.028655425
41	0xbdd407a8	-0.10353023
42	0xbdd29d01	-0.10283852
43	0x3d8c66e7	0.068555646
44	0x3da20085	0.07910255
45	0xbc9968a4	-0.018726654
46	0xbe2f1975	-0.17099555
47	0x3d8284e8	0.06373006
48	0xbd38ff5d	-0.04516541
49	0xbe08503f	-0.13311861
50	0xbdac941e	-0.084266886
51	0xbda3e0c8	-0.08001858
52	0xbe15a4d8	-0.14613664
53	0x3db6f4c5	0.08933405
54	0xbcd44d57	-0.025915785
55	0x3d25a0c4	0.04043652
56	0xbd0d7d59	-0.03454337
57	0xbc19f0e4	-0.009395812
58	0x3d208cf7	0.039196935
59	0x3d342000	0.04397583
60	0xbcceccc0	-0.025244117
61	0x3d5d6463	0.054050814
62	0x3cef21aa	0.029190857
63	0xbc815a14	-0.015790023
64	0x3c8f6992	0.017506395
65	0x3da317bc	0.07963511
66	0xbd6f6fc5	-0.0584562
67	0xbd9de07c	-0.077088326
68	0xbc8cb202	-0.017174724
69	0xbe011691	-0.12606265
70	0x3d726c04	0.059185043
71	0x3df82702	0.12116815
72	0xbd42ef70	-0.047591627
73	0x3d52402f	0.05133074
74	0x3da8c2fd	0.08240316
75	0x3e10f954	0.14157611
76	0xbd9ea946	-0.0774713
77	0x3cd95b89	0.026532905
78	0xbda59c9c	-0.080865115
79	0x3d76f368	0.060290724
80	0x3e298f66	0.16558608
81	0x3bffccec	0.007806411
82	0xbb536f7b	-0.0032262492
83	0xbc8c9d61	-0.017164888
84	0x3deea352	0.11652245
85	0xbd4aa7cf	-0.04947644
86	0x3cfb8f16	0.030707877
87	0xbdcd4d65	-0.100245275
88	0x3c1610af	0.009159251
89	0xbd5b1963	-0.053491008
90	0x3daa28df	0.08308577
91	0xbcf90019	-0.030395554
92	0xbca0b811	-0.01961902
93	0xbdee065d	-0.116223074
94	0x3e2ec018	0.17065465
95	0x3d9120b6	0.07086317
96	0x3cab7c0a	0.02093317
97	0xbe6f7b67	-0.23386918
98	0x3d2427a3	0.040076863
99	0xbc4065bd	-0.011743006
100	0xbdd4602e	-0.10369907
101	0xbd3dd3be	-0.04634451
102	0x3d3ed051	0.046585385
103	0xbce75dda	-0.028242994
104	0x3d9af45e	0.075661406
105	0xbe38b2f3	-0.18037014
106	0x3de14de8	0.110011876
107	0xbe289643	-0.1646357
108	0x3d8a2c1d	0.06746695
109	0xbd617700	-0.055045128
110	0xbb947ed5	-0.004531721
111	0xbd952d14	-0.072839886
112	0xbd91bc15	-0.07115952
113	0x3d4e72ee	0.050402574
114	0x3d8a51f6	0.06753914
115	0x3e15f405	0.14643867
116	0x3ca4231f	0.020036278
117	0x3dcb9448	0.09940392
118	0x3e069c68	0.13145602
119	0x3e0fdf6e	0.14050075
120	0x3d9bb93a	0.076036885
121	0xbcdbb3d6	-0.02681915
122	0xbd3a72df	-0.045519706
123	0x3b966abc	0.0045903604
124	0xbe0abd3e	-0.13548753
125	0x3d26b3a8	0.040698677
126	0xbcd5550a	-0.026041526
127	0x3e38f846	0.18063459
128	0x3d9bf899	0.076157756
129	0x3e1030ce	0.14081118
130	0x3e113718	0.14181173
131	0xbd44b969	-0.048028383
132	0x3d8d458e	0.06898032
133	0x3d5a5d8f	0.05331188
134	0xbde81e35	-0.113338865
135	0x3de61efa	0.11236377
136	0x3e45793e	0.19284531
137	0xbea9cbd7	-0.3316333
138	0x3e678735	0.22610171
139	0x3db10c8b	0.086449705
140	0xbe7c8c25	-0.24662836
141	0x3dcd55e3	0.10026147
142	0x3d3f4ff6	0.046707116
143	0x3d518453	0.051151585
144	0x3d306e05	0.043073673
145	0x3c3b9666	0.011449432
146	0xbd39f382	-0.045398243
147	0xbe2256e2	-0.15853456
148	0xbdc52d68	-0.09627801
149	0xbde5be4d	-0.112179376
150	0x3b2ff949	0.0026851466
151	0xbdc0d1db	-0.09415027
152	0xbdbd546a	-0.09244616
153	0x3d33efe5	0.043929953
154	0xbda2ee6f	-0.07955634
155	0xbe5e59e2	-0.21713975
156	0xbd88d7c3	-0.06681778
157	0xbe19ca80	-0.15018654
158	0x3da50423	0.0805743
159	0xbe056df7	-0.1303023
160	0xbdf611ad	-0.1201509
161	0xbda0f5e3	-0.07859399
162	0x3dd87cbf	0.105706684
163	0xbe1c5c2d	-0.15269537
164	0x3e0f0be0	0.13969374
165	0xbda278a6	-0.07933168
166	0x3c4b7d74	0.012420047
167	0x3dc07bf1	0.0939864
168	0xbe0cfdbb	-0.13768665
169	0xbda8a3b3	-0.08234348
170	0x3e17f7ca	0.14840618
171	0xbdd70b74	-0.105002314
172	0x3d7d5891	0.06185204
173	0x3c65580c	0.013998043
174	0xbd9befca	-0.076140955
175	0x3dd665d6	0.104686424
176	0x3dab9c17	0.08379381
177	0xbdc9917f	-0.09842204
178	0x3e06f8c4	0.13180834
179	0x3d423495	0.047413427
180	0x3cba833f	0.022767661
181	0x3dcf1381	0.10111142
182	0x3d472c60	0.048626304
183	0x3d5dafd3	0.054122757
184	0x3d7afd93	0.061276983
185	0x3dfc6bc8	0.12325245
186	0x3e2d19f1	0.16904427
187	0xbc74fd63	-0.01495299
188	0xbda56079	-0.08075041
189	0xbd5b9a24	-0.053613797
190	0xbd853d25	-0.06505803
191	0x3e08091f	0.1328473
192	0x3e0db8fd	0.13840099
193	0xbdb7e67f	-0.089795105
194	0xbe117711	-0.14205576
195	0x3caebdac	0.021330677
196	0x3df0b542	0.11753322
197	0x3d353a82	0.04424525
198	0x3d7302cf	0.05932885
199	0xbd83d6da	-0.06437464
200	0xbdd58722	-0.10426165
201	0xbe217b99	-0.15769805
202	0x3e1ede2f	0.15514444
203	0x3de6ad13	0.1126348
204	0x3d838984	0.064227134
205	0xbe163f0b	-0.14672486
206	0x3e0095c1	0.12557127
207	0x3dc7100f	0.0971986
208	0x3d6fe9be	0.058572523
209	0xbe02ead0	-0.12784886
210	0xbc189860	-0.009313673
211	0xbc407112	-0.011745708
212	0x3d96fb57	0.07372158
213	0x3ca60e4e	0.020270493
214	0xbd16f863	-0.036857974
215	0x3d6b97e1	0.05751789
216	0x3de4fc1b	0.11180898
217	0x3dc41337	0.095739774
218	0xbd834c29	-0.06411011
219	0xbd003649	-0.03130177
220	0xbd24d72e	-0.040244274
221	0xbe0e9cdd	-0.13927026
222	0xbc990c81	-0.01868272
223	0x3ca9062f	0.020632831
224	0x3cacae67	0.021079255
225	0x3c27fe19	0.010253453
226	0x3e165ae0	0.14683104
227	0xbd9de7ef	-0.077102534
228	0xbda9e9d4	-0.08296552
229	0x3c24881f	0.010042219
230	0x3daba89e	0.083817706
231	0xbca68d1a	-0.020330954
232	0x3db60263	0.08887174
233	0xbdd4de5f	-0.103939764
234	0xbd3c44cd	-0.04596405
235	0x3cb04590	0.021517545
236	0x3daba3c0	0.08380842
237	0xbe72d94b	-0.23715703
238	0xbdbd224b	-0.092350565
239	0xbecf3d72	-0.40476567
240	0x3d685429	0.056720886
241	0xbe1fc0ab	-0.15600841
242	0xbe06fb14	-0.13181716
243	0x3d861c5c	0.06548378
244	0x3e6df368	0.23237383
245	0xbe23d73f	-0.16000079
246	0xbe2b9f3c	-0.16759962
247	0xbdc61565	-0.096720494
248	0x3e14921a	0.14508858
249	0x3daddee7	0.08489781
250	0xbd39baf6	-0.045344315
251	0x3db01f3d	0.08599708
252	0x3ca5ae97	0.020224852
253	0xbe83c665	-0.257373
254	0x3e0327be	0.12808129
255	0x3d23bb59	0.03997359

fc1.bias f4 [128]
0	0xbdbf84a6	-0.093514726
1	0x3d826873	0.06367578
2	0x3d363216	0.04448136
3	0xbdf0cb04	-0.11757472
4	0xbddfbdb4	-0.10924855
5	0xbcf26197	-0.02958755
6	0x3ddf4381	0.10901547
7	0xbc644af9	-0.0139338905
8	0x3d0adc78	0.03390166
9	0xbd786cac	-0.060650513
10	0xbd22f464	-0.03978385
11	0xbd900727	-0.07032614
12	0xbde3db9b	-0.11125871
13	0xbd1b7c3f	-0.037960287
14	0x3d74faff	0.05980968
15	0x3c64f1f7	0.013973705
16	0xbd354b15	-0.044261057
17	0xbc9ce800	-0.019153595
18	0x3df54707	0.11976438
19	0xbdb17029	-0.08663971
20	0xbd973267	-0.0738266
21	0x3e2cbc8c	0.168688
22	0x3e1002ec	0.14063615
23	0x3da1824c	0.0788618
24	0x3d15449b	0.03644238
25	0x3de9964a	0.114056185
26	0xbd8646d9	-0.06556482
27	0x3d67a2d9	0.056551788
28	0xbd02b5a7	-0.03191152
29	0x3c33e25c	0.010979261
30	0xbcafe064	-0.021469302
31	0x3bc525c9	0.006016467
32	0x3e1f71e9	0.15570797
33	0x3ba47501	0.0050188308
34	0x3e1fd97e	0.1561031
35	0x3dbe9f11	0.09307683
36	0x3dc2669c	0.094922274
37	0x3d78c2aa	0.06073252
38	0x3e15320f	0.14569877
39	0x3cb4109b	0.021980574
40	0x3b3b059a	0.0028537274
41	0xbd9b1785	-0.07572845
42	0xbd41a5b3	-0.047277164
43	0x3d815242	0.063145176
44	0xbd898d18	-0.067163646
45	0x3ddaa277	0.10675519
46	0xbd184380	-0.037173748
47	0x3cfef1eb	0.031121215
48	0x3d077955	0.033074696
49	0x3e1deaa3	0.15421538
50	0x3d5fbe20	0.054624677
51	0xbd493c89	-0.049129996
52	0xbe134752	-0.14382675
53	0x3c06fc2b	0.0082388325
54	0xbdeff0ff	-0.11715888
55	0xbd8d6735	-0.06904451
56	0x3e113f51	0.1418431
57	0xbd614de8	-0.055005938
58	0xbdcb6b72	-0.09932603
59	0x3dab852c	0.0837501
60	0x3ddd1aac	0.10796103
61	0x3d9d4e42	0.07680942
62	0xbddd3ef4	-0.10803023
63	0x3e05c4b3	0.13063316
64	0x3d5ef2ab	0.054430645
65	0x3ca30f0b	0.019904634
66	0xbdb6fac2	-0.08934547
67	0x3cc52524	0.024065562
68	0x3de58ab7	0.112080984
69	0xbc6d919c	-0.014500048
70	0xbd5350a8	-0.05159059
71	0xbcf22de4	-0.029562898
72	0x3e020a33	0.12699203
73	0x3d030fb1	0.031997386
74	0x3cd8caa0	0.026463807
75	0x3d703436	0.058643542
76	0x3dca7a35	0.098865904
77	0x3e13ec87	0.14445697
78	0x3d372b3b	0.044718962
79	0xbdaf4d4e	-0.085596666
80	0x3dc79d1e	0.097467646
81	0x3dbd8034	0.092529684
82	0x3d86d1e8	0.06583005
83	0x3e0cf4b3	0.1376522
84	0xbd2239e7	-0.039606
85	0x3d89bd59	0.06725568
86	0xbcbc4395	-0.022981444
87	0x3dc09b02	0.094045654
88	0x3d81ebff	0.06343841
89	0x3c250263	0.01007137
90	0x3d5280f2	0.051392503
91	0xbdb947fc	-0.09046933
92	0xbc81c2b5	-0.015839914
93	0x3e177f7b	0.14794724
94	0xbdb3a0c6	-0.087708995
95	0x3e09f8f2	0.13473871
96	0xbcd46040	-0.025924802
97	0xbdd0ffed	-0.10205064
98	0xbd311c67	-0.043239977
99	0x3c077015	0.0082664685
100	0x3e0b4ce7	0.13603555
101	0xbda4b7e9	-0.080428906
102	0xbddb8768	-0.10719186
103	0x3e15b816	0.14621004
104	0xbdce218f	-0.100649945
105	0xbda0bb3a	-0.07848211
106	0x3e20e0b7	0.15710722
107	0x3dd79178	0.10525793
108	0xbd9a6770	-0.075392604
109	0x3afc63b7	0.0019255792
110	0xbdd69b71	-0.10478867
111	0x3d4a5060	0.049393058
112	0xbd51e3ca	-0.051242627
113	0xbd93a0b6	-0.072083876
114	0x3e1a89c0	0.1509161
115	0x3d4984fd	0.049199093
116	0x3dfa8037	0.12231486
117	0x3d998a56	0.074970886
118	0x3d85f23d	0.06540344
119	0x3dd7228c	0.10504636
120	0xbd21f5e2	-0.039541133
121	0xbd7ca267	-0.061678316
122	0x3e1a00fe	0.15039441
123	0x3d7eb05e	0.062179916
124	0x3dc5fd12	0.0966741
125	0x3e240fb6	0.16021618
126	0x3dd9e871	0.10640038
127	0x3c90ad0e	0.017660644

fc2.weight f4 [32, 128]
0	0x3d92d1e3	0.07168939
1	0x3d5dcc61	0.05414999
2	0xbc2ca007	-0.0105362
3	0xbd4848c1	-0.04889751
4	0x3e24d31f	0.16096161
5	0x3da18bc8	0.07887989
6	0xbc967786	-0.01836754
7	0x3cb0081e	0.021488246
8	0x3d515af6	0.051112138
9	0xbe2d4cec	-0.16923875
10	0xbe7256dc	-0.23665947
11	0xbd8ba4df	-0.06818556
12	0x3cd2f34c	0.025750779
13	0xbe3656fc	-0.1780662
14	0x3db1c94a	0.08680971
15	0x3dcda6aa	0.10041554
16	0xbe2ff40a	-0.17182937
17	0xbe0ed509	-0.13948454
18	0x3de84fee	0.113433704
19	0x3d859a0e	0.06523524
20	0x3e56bec7	0.20971213
21	0x3e0706cf	0.13186191
22	0xbcf5897d	-0.029972786
23	0x3c6a9289	0.014317163
24	0x3dd07231	0.1017803
25	0x3d459821	0.048240785
26	0x3dd1756e	0.10227476
27	0x3d5514de	0.052021854
28	0x3e0032f0	0.12519431
29	0xbe56adda	-0.20964757
30	0x3d545c66	0.05184593
31	0xbdcfd581	-0.101481445
32	0x3db34b7a	0.087546304
33	0x3dc49ae0	0.095998526
34	0x3dc17c9c	0.094475955
35	0x3cc777d0	0.024349123
36	0x3d0b07dc	0.033943042
37	0x3d620a05	0.055185337
38	0xbc80089c	-0.015629105
39	0x3d83c296	0.06433599
40	0xbdec6506	-0.11542706
41	0x3d24c50e	0.04022699
42	0xbc8191a9	-0.015816526
43	0xbdcf6653	-0.10126939
44	0x3cb7ae6d	0.02242204
45	0x3d1714a5	0.036884923
46	0x3cf8e53f	0.03038275
47	0x3ca63665	0.02028961
48	0x3de10c07	0.10988622
49	0x3d028017	0.031860437
50	0xbcb45e28	-0.022017553
51	0x3c15a8c0	0.009134471
52	0xbd3eea68	-0.046610266
53	0xbe28a025	-0.1646734
54	0x3e694f0b	0.22784059
55	0xbe1b5a38	-0.15171134
56	0xbb3ea8a1	-0.002909221
57	0xbc3715d1	-0.011174635
58	0xbd28e728	-0.041236073
59	0x3da926bb	0.082593404
60	0x3ca12597	0.019671245
61	0xbc490c9d	-0.012271074
62	0x3e10c0dd	0.14136072
63	0x3d434ace	0.04767876
64	0xbe40890c	-0.18802279
65	0x3cdfd3d7	0.027322693
66	0xbe61b68a	-0.2204229
67	0xbe340244	-0.1757899
68	0x3c4e410a	0.012588749
69	0xbd27390c	-0.04082589
70	0x3df8d2c1	0.12149573
71	0x3d91f5cf	0.071269624
72	0xbcb26df7	-0.021780951
73	0x3e2af46b	0.166948
74	0xbd0cfb60	-0.034419417
75	0x3ddb34fc	0.10703465
76	0x3d3a3429	0.0454599
77	0x3df67775	0.12034503
78	0x3dc7c38f	0.09754097
79	0x3d7169bb	0.058938723
80	0x3c08e533	0.008355427
81	0xbdb450a6	-0.08804445
82	0x3dc0f2cf	0.09421312
83	0x3dbbc790	0.09168923
84	0x3dfaebe9	0.122520275
85	0xbda0e941	-0.0785699
86	0xbe2967ec	-0.1654355
87	0x3cb81d35	0.022474864
88	0x3b02e444	0.0019972483
89	0x3e0b357e	0.13594624
90	0x3d8acc20	0.06777215
91	0x3e3fb58e	0.18721601
92	0x3cbf3200	0.023339272
93	0x3cc52c46	0.024068963
94	0x3e107410	0.14106774
95	0x3d6fd120	0.058549047
96	0x3e750407	0.23927318
97	0x3def59f6	0.116870806
98	0x3d8a347c	0.06748292
99	0xbe17f71d	-0.1484036
100	0x3dd61a18	0.10454196
101	0x3daa909e	0.08328365
102	0x3d82b3a0	0.06381917
103	0x3d6c41fd	0.05768012
104	0x3de63b08	0.11241728
105	0x3da8b34f	0.082373254
106	0xbd4ede8a	-0.0505052
107	0xbc8f7795	-0.017513076
108	0x3dfdfa00	0.12401199
109	0xbd4bb6e0	-0.04973495
110	0x3dd52bb6	0.10408728
111	0x3d91af56	0.07113521
112	0x3d9bf560	0.07615161
113	0x3b358c46	0.0027702018
114	0x3d85aa82	0.065266624
115	0x3df4678b	0.11933812
116	0xbceb5520	-0.028727114
117	0xbca51932	-0.020153616
118	0x3ce023b6	0.027360778
119	0xbb40579a	-0.002934909
120	0x3d5073e7	0.050891783
121	0x3d9af894	0.07566944
122	0x3d6b08d8	0.05738148
123	0x3d558d2e	0.052136593
124	0xbdbd084a	-0.09230097
125	0x3dfa048c	0.122078985
126	0x3d497d60	0.049191833
127	0x3db407ed	0.08790574
128	0x3e1e662c	0.15468663
129	0x3d5cce97	0.053907957
130	0xbbc5ae8d	-0.006032771
131	0x3cfd1202	0.030892376
132	0x3d8c18ac	0.06840643
133	0x3dd06532	0.101755515
134	0x3daa13b4	0.08304539
135	0x3c2ccf1c	0.010547426
136	0x3e56e140	0.20984364
137	0xbdde642b	-0.10858949
138	0xbe3e102d	-0.18560858
139	0x3d2c4efb	0.04206751
140	0x3d852b67	0.06502419
141	0xbd095efe	-0.033537857
142	0x3d148351	0.036258046
143	0x3c8e46c2	0.017367724
144	0x3cf70dac	0.030157886
145	0x3da42ca1	0.08016325
146	0x3dbaa034	0.091125876
147	0x3dc1ccb8	0.09462875
148	0x3e6f2fb3	0.2335804
149	0x3e0d8b3b	0.13822643
150	0x3e1ec9dd	0.15506692
151	0x3db4d9a3	0.088305734
152	0x3e128453	0.1430829
153	0xbd3ad5c8	-0.045614034
154	0x3dae2abd	0.085042454
155	0x3de061d1	0.10956157
156	0x3dc6d37c	0.09708306
157	0xbe4979f0	-0.19675422
158	0x3de0736a	0.109595135
159	0xbcf30468	-0.029665187
160	0x3df677e7	0.12034588
161	0x3daeaf2f	0.08529507
162	0x3d630fd3	0.055435013
163	0x3df24a94	0.11830631
164	0x3c472397	0.012154481
165	0x3d910a2f	0.070820205
166	0x3ddf368e	0.10899077
167	0xbc136ffa	-0.008998865
168	0xbd9cefee	-0.076629505
169	0x3d3b854d	0.045781422
170	0x3dc978fc	0.09837529
171	0xbb6abd90	-0.0035818554
172	0x3dc39703	0.095502876
173	0x3e21158f	0.1573088
174	0x3da48950	0.08034003
175	0x3bdc84df	0.0067297067
176	0x3cf70011	0.030151399
177	0xbd2085ff	-0.03919029
178	0x3d0023e0	0.031284213
179	0x39900700	0.00027471036
180	0xbcc53ce4	-0.024076886
181	0xbda1871b	-0.078870974
182	0x3dd72f5c	0.1050708
183	0xbe22928f	-0.1587622
184	0x3ba465f8	0.0050170384
185	0x3dde2baf	0.10848176
186	0xbda43e18	-0.08019656
187	0xbbf18d2b	-0.007371565
188	0xbc774865	-0.015092944
189	0x3cf1df98	0.029525563
190	0x3e33d7fe	0.17562863
191	0x3d935e6b	0.07195743
192	0x3cf99364	0.03046579
193	0xbc959161	-0.018257799
194	0xbe8847e4	-0.26617348
195	0xbddff157	-0.10934704
196	0x3b6e6200	0.003637433
197	0x3c9918c7	0.018688573
198	0xbcdddf38	-0.027083978
199	0x3da398ef	0.07988154
200	0x3dce7a9b	0.10081979
201	0x3e27edb8	0.16399276
202	0x3d973df5	0.07384864
203	0x3e396b43	0.18107323
204	0xbb384a26	-0.0028120368
205	0x3d562f46	0.052291177
206	0x3da60b72	0.08107652
207	0x3e280ebc	0.1641187
208	0x3dd8f22a	0.10593064
209	0xbd8dc8c2	-0.06923057
210	0x3c845330	0.016152948
211	0xbcf00449	-0.029298918
212	0x3db8c7fd	0.0902252
213	0x3c8e8b4d	0.017400408
214	0xbe16e8a9	-0.1473719
215	0xb9d34257	-0.00040294483
216	0x3dfac46c	0.12244496
217	0x3dfa8c56	0.12233798
218	0x3dc90c6d	0.09816823
219	0x3e56531f	0.20930146
220	0x3cfcb85c	0.030849628
221	0x3c1c56a8	0.009542145
222	0x3e65bac8	0.22434533
223	0x3e114d06	0.14189538
224	0x3e577613	0.21041135
225	0x3dd3b531	0.10337294
226	0xbd041ae7	-0.03225222
227	0x3cb9c2fa	0.02267598
228	0x3ccfcd2d	0.02536639
229	0x3dfe5cb3	0.12420025
230	0x3d5fc47f	0.054630753
231	0x3dc328de	0.09529279
232	0x3bcdf6fc	0.0062855463
233	0x3e287eac	0.16454571
234	0x3d9d2db6	0.07674734
235	0x3d631f9d	0.05545007
236	0x3e17b7c9	0.14816202
237	0x3c30742f	0.010769888
238	0x3d3bbde5	0.045835394
239	0x3ceaf205	0.028679857
240	0x3b01e7ee	0.0019822079
241	0x3df452b8	0.1192984
242	0x3c0df71e	0.008664874
243	0x3d8daac4	0.069173366
244	0x3d2e03fc	0.04248427
245	0xbd0c88d4	-0.034310177
246	0xbd78b1b3	-0.060716342
247	0x3d410370	0.04712242
248	0x3d3ef176	0.046616994
249	0x3df548e1	0.11976791
250	0x3d576a61	0.052591685
251	0x3c2172ce	0.009854032
252	0xbb9a45f2	-0.004708045
253	0x3d3c2a08	0.04593852
254	0xbcc27663	-0.023738092
255	0x3d2dcb34	0.042430118

fc2.bias f4 [32]
0	0xbc0d92d0	-0.00864096
1	0x3cf72a9e	0.030171689
2	0xbd7d02c8	-0.06177023
3	0x3d447808	0.047966033
4	0x3dc50ee4	0.09621981
5	0x3de491f7	0.11160653
6	0x3d94a2d8	0.072576225
7	0x3d363038	0.04447958
8	0x3dcfee5f	0.101528876
9	0x3d2078c2	0.039177664
10	0x3d0afa61	0.033930186
11	0x3d47c663	0.04877318
12	0xbd35e877	-0.04441115
13	0x3d35fb8e	0.044429354
14	0x3db48d4f	0.08816015
15	0xbd9d3c28	-0.076774895
16	0x3d8cc7a6	0.068740174
17	0x3c9557e3	0.018230384
18	0x3ae05cb5	0.0017117473
19	0xbc70cafe	-0.014696835
20	0xbd12fbf2	-0.035884805
21	0x3d27710d	0.040879298
22	0x3d1ca2a7	0.038241055
23	0x3d4a708a	0.049423732
24	0xbd62a049	-0.05532864
25	0x3d987f67	0.07446175
26	0x3d71e791	0.05905873
27	0x3d8fa493	0.07013812
28	0xbd63ca44	-0.055612817
29	0xbc36f13e	-0.011165915
30	0x3d8c4db6	0.0685076
31	0xbbc474ba	-0.00599536

fc3.weight f4 [1, 32]
0	0xbe8b85e6	-0.27250594
1	0xbe70093f	-0.23441027
2	0xbe2aac40	-0.1666727
3	0x3eb04dad	0.34434262
4	0xbe5583a0	-0.20850992
5	0xbdf747bb	-0.120742284
6	0xbe6441a4	-0.22290665
7	0x3e93a981	0.2884026
8	0xbdfb30ea	-0.12265189
9	0xbe83a64d	-0.25712815
10	0xbe4f0545	-0.20216854
11	0x3e3747fa	0.1789855
12	0x3e13aad1	0.1442063
13	0xbe0664e4	-0.13124424
14	0xbe3ba64b	-0.18325154
15	0x3e228241	0.1587
16	0x3eaa5b28	0.33272672
17	0xbe2c8691	-0.16848208
18	0x3e7624f9	0.24037541
19	0xbe176f6a	-0.14788595
20	0x3f05ab9f	0.52215
21	0x3e8bb760	0.27288342
22	0x3df43e74	0.119259745
23	0x3d348259	0.04406962
24	0xbe33be46	-0.17553052
25	0x3e5b18c1	0.21396162
26	0xbe60415d	-0.21899934
27	0x3df89ccd	0.121392824
28	0xbe83cf45	-0.25744072
29	0xbe99bedd	-0.3002843
30	0xbe7b02ef	-0.24512838
31	0x3e4d1349	0.20026888
